saved_model_001/data/model.pth (torch, 776551 bytes, 12 tensors)

init_hidden f4 [2, 1, 100]
0	0x00000000	0.0
1	0x00000000	0.0
2	0x00000000	0.0
3	0x00000000	0.0
4	0x00000000	0.0
5	0x00000000	0.0
6	0x00000000	0.0
7	0x00000000	0.0
8	0x00000000	0.0
9	0x00000000	0.0
10	0x00000000	0.0
11	0x00000000	0.0
12	0x00000000	0.0
13	0x00000000	0.0
14	0x00000000	0.0
15	0x00000000	0.0
16	0x00000000	0.0
17	0x00000000	0.0
18	0x00000000	0.0
19	0x00000000	0.0
20	0x00000000	0.0
21	0x00000000	0.0
22	0x00000000	0.0
23	0x00000000	0.0
24	0x00000000	0.0
25	0x00000000	0.0
26	0x00000000	0.0
27	0x00000000	0.0
28	0x00000000	0.0
29	0x00000000	0.0
30	0x00000000	0.0
31	0x00000000	0.0
32	0x00000000	0.0
33	0x00000000	0.0
34	0x00000000	0.0
35	0x00000000	0.0
36	0x00000000	0.0
37	0x00000000	0.0
38	0x00000000	0.0
39	0x00000000	0.0
40	0x00000000	0.0
41	0x00000000	0.0
42	0x00000000	0.0
43	0x00000000	0.0
44	0x00000000	0.0
45	0x00000000	0.0
46	0x00000000	0.0
47	0x00000000	0.0
48	0x00000000	0.0
49	0x00000000	0.0
50	0x00000000	0.0
51	0x00000000	0.0
52	0x00000000	0.0
53	0x00000000	0.0
54	0x00000000	0.0
55	0x00000000	0.0
56	0x00000000	0.0
57	0x00000000	0.0
58	0x00000000	0.0
59	0x00000000	0.0
60	0x00000000	0.0
61	0x00000000	0.0
62	0x00000000	0.0
63	0x00000000	0.0
64	0x00000000	0.0
65	0x00000000	0.0
66	0x00000000	0.0
67	0x00000000	0.0
68	0x00000000	0.0
69	0x00000000	0.0
70	0x00000000	0.0
71	0x00000000	0.0
72	0x00000000	0.0
73	0x00000000	0.0
74	0x00000000	0.0
75	0x00000000	0.0
76	0x00000000	0.0
77	0x00000000	0.0
78	0x00000000	0.0
79	0x00000000	0.0
80	0x00000000	0.0
81	0x00000000	0.0
82	0x00000000	0.0
83	0x00000000	0.0
84	0x00000000	0.0
85	0x00000000	0.0
86	0x00000000	0.0
87	0x00000000	0.0
88	0x00000000	0.0
89	0x00000000	0.0
90	0x00000000	0.0
91	0x00000000	0.0
92	0x00000000	0.0
93	0x00000000	0.0
94	0x00000000	0.0
95	0x00000000	0.0
96	0x00000000	0.0
97	0x00000000	0.0
98	0x00000000	0.0
99	0x00000000	0.0
100	0x00000000	0.0
101	0x00000000	0.0
102	0x00000000	0.0
103	0x00000000	0.0
104	0x00000000	0.0
105	0x00000000	0.0
106	0x00000000	0.0
107	0x00000000	0.0
108	0x00000000	0.0
109	0x00000000	0.0
110	0x00000000	0.0
111	0x00000000	0.0
112	0x00000000	0.0
113	0x00000000	0.0
114	0x00000000	0.0
115	0x00000000	0.0
116	0x00000000	0.0
117	0x00000000	0.0
118	0x00000000	0.0
119	0x00000000	0.0
120	0x00000000	0.0
121	0x00000000	0.0
122	0x00000000	0.0
123	0x00000000	0.0
124	0x00000000	0.0
125	0x00000000	0.0
126	0x00000000	0.0
127	0x00000000	0.0
128	0x00000000	0.0
129	0x00000000	0.0
130	0x00000000	0.0
131	0x00000000	0.0
132	0x00000000	0.0
133	0x00000000	0.0
134	0x00000000	0.0
135	0x00000000	0.0
136	0x00000000	0.0
137	0x00000000	0.0
138	0x00000000	0.0
139	0x00000000	0.0
140	0x00000000	0.0
141	0x00000000	0.0
142	0x00000000	0.0
143	0x00000000	0.0
144	0x00000000	0.0
145	0x00000000	0.0
146	0x00000000	0.0
147	0x00000000	0.0
148	0x00000000	0.0
149	0x00000000	0.0
150	0x00000000	0.0
151	0x00000000	0.0
152	0x00000000	0.0
153	0x00000000	0.0
154	0x00000000	0.0
155	0x00000000	0.0
156	0x00000000	0.0
157	0x00000000	0.0
158	0x00000000	0.0
159	0x00000000	0.0
160	0x00000000	0.0
161	0x00000000	0.0
162	0x00000000	0.0
163	0x00000000	0.0
164	0x00000000	0.0
165	0x00000000	0.0
166	0x00000000	0.0
167	0x00000000	0.0
168	0x00000000	0.0
169	0x00000000	0.0
170	0x00000000	0.0
171	0x00000000	0.0
172	0x00000000	0.0
173	0x00000000	0.0
174	0x00000000	0.0
175	0x00000000	0.0
176	0x00000000	0.0
177	0x00000000	0.0
178	0x00000000	0.0
179	0x00000000	0.0
180	0x00000000	0.0
181	0x00000000	0.0
182	0x00000000	0.0
183	0x00000000	0.0
184	0x00000000	0.0
185	0x00000000	0.0
186	0x00000000	0.0
187	0x00000000	0.0
188	0x00000000	0.0
189	0x00000000	0.0
190	0x00000000	0.0
191	0x00000000	0.0
192	0x00000000	0.0
193	0x00000000	0.0
194	0x00000000	0.0
195	0x00000000	0.0
196	0x00000000	0.0
197	0x00000000	0.0
198	0x00000000	0.0
199	0x00000000	0.0

weight f4 [103, 100]
0	0x3eacbbc9	0.3373702
1	0xbe360b3b	-0.17777722
2	0xbe9b67f8	-0.3035276
3	0xbf1687f2	-0.58801186
4	0x3eb27c61	0.3486052
5	0x3f290c1b	0.66034096
6	0xbe60e8af	-0.21963762
7	0xbec2228c	-0.37916982
8	0x3f446121	0.76710707
9	0xbf98a3e8	-1.192502
10	0x3f32c731	0.6983519
11	0xbfb471cd	-1.4097229
12	0x3e37af4a	0.17937961
13	0x3ff29436	1.895148
14	0x3efdab26	0.49544638
15	0x3e89d465	0.26919857
16	0xbd9dbcc9	-0.077020235
17	0xbf829ed3	-1.0204719
18	0xbe2d02e0	-0.16895628
19	0x3f6af29e	0.91776454
20	0x3fca5d36	1.5809696
21	0x3fa6887a	1.3010399
22	0x3fa33d12	1.2753012
23	0xbe4dc6a6	-0.2009531
24	0x3efe3172	0.496471
25	0xbfc94144	-1.5723042
26	0x3f77713c	0.96657157
27	0xbf92f662	-1.148144
28	0xbf9455c8	-1.1588678
29	0x3ea6a423	0.325471
30	0xbf21aa56	-0.63150537
31	0xc035c276	-2.839994
32	0xbfa99834	-1.3249574
33	0x3e36b5f2	0.17842844
34	0xc0088f69	-2.133753
35	0x3f86b3a9	1.0523578
36	0xbec6e741	-0.38848308
37	0xbf6f314b	-0.9343459
38	0xbeff8fd1	-0.4991441
39	0xbf8b176f	-1.0866526
40	0x3f616b5a	0.8805443
41	0x3fc6eeab	1.5541586
42	0x3f2069e9	0.62661606
43	0xbe33b2eb	-0.1754872
44	0x3dc94901	0.098283775
45	0xbdbf80d3	-0.09350743
46	0x3e884d4c	0.26621473
47	0xbf15c4e3	-0.5850355
48	0x3f607864	0.876837
49	0x3fcfa26a	1.622144
50	0xbfbd2d34	-1.477942
51	0x3f9109a6	1.133107
52	0xbf9c3279	-1.2202903
53	0x3fa82c5d	1.3138539
54	0x3f86d286	1.0532997
55	0x3e0e22f2	0.13880518
56	0x400fd447	2.2473314
57	0xbf4dbb16	-0.80363595
58	0xbe8fca95	-0.28084245
59	0x3f450981	0.76967627
60	0xbf28d8e6	-0.6595596
61	0xbf4c44fd	-0.7979277
62	0x3e3c3e43	0.18383126
63	0x3e6ada0c	0.22934741
64	0x3f03beba	0.514629
65	0x3f7e674e	0.9937638
66	0xbe8478b5	-0.25873342
67	0xbf8a910a	-1.0825512
68	0xbd35c9e2	-0.044381984
69	0x3fcfd0bb	1.6235574
70	0xc014a9eb	-2.322871
71	0x3f8b3e08	1.0878305
72	0x3f2beb07	0.671555
73	0x3f317bcd	0.6932953
74	0xbf72dfa2	-0.94872487
75	0xbd9cafd3	-0.07650723
76	0xbe1c4dc2	-0.15264037
77	0x3def1601	0.11674119
78	0x3ee169d2	0.44026047
79	0xbfb92870	-1.4465466
80	0x3e82b5ae	0.25529236
81	0xbf0cb466	-0.54962766
82	0x3f808a7b	1.0042261
83	0x3f53c567	0.8272309
84	0xbeca2460	-0.39480877
85	0x3efa7c0e	0.4892277
86	0xbe5e04b9	-0.21681489
87	0xbfdfa316	-1.7471645
88	0xbfcd1efc	-1.6025081
89	0xbf89c6fe	-1.0763853
90	0x3f6734b9	0.90314823
91	0xbf38caca	-0.7218443
92	0xbf185771	-0.59508425
93	0xbf36125a	-0.7112175
94	0x3f1f7aa0	0.62296486
95	0xbfafba98	-1.3728819
96	0xc00dc263	-2.2149894
97	0xbfa8df26	-1.31931
98	0xc005db1f	-2.091499
99	0x3f767d75	0.9628518
100	0xbd3ff1aa	-0.04686133
101	0xbefcdd8f	-0.49387786
102	0x3f4078d3	0.75184363
103	0x3d2dd41c	0.04243861
104	0x40007f86	2.0077834
105	0x3fb16067	1.3857545
106	0xbf040c59	-0.5158134
107	0xbe87a931	-0.2649627
108	0xc004e639	-2.0765517
109	0x3ca48fe1	0.020088138
110	0xbf809520	-1.0045509
111	0x3f342542	0.7036935
112	0xbf6cfed3	-0.9257633
113	0xbef73e15	-0.48289552
114	0x3f823b57	1.0174359
115	0xbe97111c	-0.2950524
116	0x3ef4a006	0.47778338
117	0x3a2d4f78	0.0006611268
118	0xbe940ada	-0.2891453
119	0xbf3fe54f	-0.7495927
120	0x3fb4a17e	1.4111784
121	0xbf8144dd	-1.009914
122	0xbc800044	-0.015625127
123	0x3fa18ba0	1.2620735
124	0xbdbb6072	-0.09149255
125	0x3fa53f27	1.2909898
126	0xbfb90f6e	-1.4457834
127	0xc0097c62	-2.1482167
128	0xbe7ab9c3	-0.24484925
129	0xc00390f7	-2.055723
130	0xbf495d5a	-0.7865807
131	0xbf4daa12	-0.8033763
132	0xbf956687	-1.1671914
133	0xbe9aeb6f	-0.30257747
134	0xbf16f5ba	-0.589687
135	0x3f1d3dff	0.61422724
136	0xbfb59ee2	-1.4189112
137	0xbf1b4930	-0.6065855
138	0xbe75998e	-0.23984358
139	0x3f9555cf	1.1666812
140	0xbb405b2a	-0.0029351213
141	0x3ed713b8	0.42007232
142	0xbf403a84	-0.7508929
143	0xbd8bba73	-0.06822672
144	0xbfa13472	-1.259413
145	0x3edf9ca3	0.43674192
146	0xbe78d9a3	-0.24301772
147	0x3f6ff9a4	0.93740296
148	0x3e432f73	0.19061069
149	0xbef6c410	-0.4819646
150	0x3f112c4f	0.56708235
151	0x3e444f97	0.19170986
152	0xbe93169c	-0.28728187
153	0xbf2f7177	-0.6853251
154	0xbf21a404	-0.63140893
155	0xbf592dd0	-0.8483553
156	0x3ef03523	0.4691554
157	0xbdf64476	-0.12024777
158	0x3e6852a4	0.22687775
159	0xbf62eb91	-0.88640696
160	0x3f2b9676	0.6702646
161	0x3ffe7226	1.9878585
162	0xbf0827fd	-0.5318602
163	0x3fcb1b60	1.5867729
164	0xc00fdbcf	-2.247791
165	0xbfe86fea	-1.8159153
166	0x3f376a8d	0.7164696
167	0x3f15c57d	0.5850447
168	0xbf985e8f	-1.1903857
169	0xc002cf62	-2.0439076
170	0x3e0344e3	0.12819247
171	0x3fb988e5	1.4494902
172	0x3dd39c04	0.10332492
173	0xbf983608	-1.1891489
174	0x3f8e2067	1.1103638
175	0x401be63e	2.4359279
176	0x3e0e87b6	0.13918957
177	0xbedd3319	-0.43203047
178	0x3f093b60	0.53606224
179	0x3d51a75c	0.051184997
180	0x3f2b6792	0.6695491
181	0x3f9899e9	1.192197
182	0x3fce2d7f	1.6107634
183	0x3eb8ba39	0.36079577
184	0x3e182335	0.1485718
185	0x3f404fd7	0.75121826
186	0x4012a0a7	2.2910554
187	0xbfa7c9af	-1.3108424
188	0xbf696923	-0.9117605
189	0x3dcaa19f	0.09894108
190	0x3f59f7da	0.85143816
191	0x3c5e6170	0.013573036
192	0xbf777cd2	-0.96674836
193	0xc0074c52	-2.1140332
194	0xbe83caef	-0.25740764
195	0xbeac16e1	-0.33611205
196	0x3f8d0deb	1.1019872
197	0xbf1b3bf9	-0.60638386
198	0xc010691d	-2.2564156
199	0xbfb13f5c	-1.3847461
200	0x3f960653	1.172068
201	0xbedfd3d1	-0.4371629
202	0xbecf8028	-0.40527463
203	0x3f3569b0	0.7086439
204	0x3f740c4c	0.95331264
205	0xbc5592c4	-0.01303548
206	0xbe0535e9	-0.13008846
207	0xbdb38733	-0.087660216
208	0xbd89ee61	-0.0673492
209	0x3e7ca917	0.24673878
210	0xbf706da7	-0.93917316
211	0xbf85bb1e	-1.0447729
212	0x3fa39fc2	1.2783129
213	0x3ed68ac5	0.41902748
214	0xbf01dca4	-0.50727296
215	0xbf1b31d2	-0.60622895
216	0xbf86d0bb	-1.053245
217	0x3feb55a3	1.8385509
218	0xbde05592	-0.10953821
219	0xbea9c880	-0.33160782
220	0x3f669d33	0.90083617
221	0x3ef7cccb	0.48398432
222	0xbfa96ff4	-1.323729
223	0x3f4973ea	0.78692496
224	0x3fb0dd50	1.3817539
225	0xbd8e1065	-0.06936721
226	0xbf42dbbf	-0.76116556
227	0x3e776cf6	0.24162659
228	0xbf167ad4	-0.5878117
229	0xbf934658	-1.1505842
230	0x3f821ad8	1.0164442
231	0x3dfcc65b	0.12342521
232	0x3f90c748	1.1310816
233	0xbdafbacc	-0.085805506
234	0xbd74a403	-0.059726726
235	0x3eb5e628	0.35527158
236	0xbfb7be7c	-1.4355006
237	0x3d94fce3	0.07274797
238	0x3dd79d21	0.10528017
239	0xbf83fca5	-1.0311476
240	0x3fa7d92e	1.3113153
241	0xbd134dfe	-0.03596305
242	0x3e58e5a6	0.21181354
243	0xbc0d4f09	-0.0086248005
244	0x3fedc641	1.8576127
245	0x400873c8	2.1320667
246	0xbf016f7b	-0.5056073
247	0xbf4c80b5	-0.7988389
248	0xbf8c1513	-1.0943931
249	0xbf828536	-1.0196903
250	0xbf0a3493	-0.5398647
251	0x3f9b1871	1.2116834
252	0xbf5cfb82	-0.8632127
253	0x3faab74e	1.333719
254	0x3d9de764	0.0771015
255	0xbd55bc16	-0.052181326

weight_ih_l0 f4 [400, 100]
0	0xbd0a60a6	-0.033783577
1	0x3d8ff270	0.07028663
2	0xbdacc261	-0.08435512
3	0x3d3bbc3c	0.04583381
4	0xbcafb7c7	-0.021449937
5	0xbd442322	-0.047885068
6	0x3bee8cdd	0.007279976
7	0x3d97a063	0.07403638
8	0x3d82d647	0.063885264
9	0xbd4818cd	-0.048851777
10	0xbd27273d	-0.040808905
11	0xbd5afcb7	-0.053463664
12	0x3be27130	0.0069104657
13	0xbd8ff194	-0.07028499
14	0xbc853173	-0.01625893
15	0xba305ea8	-0.0006727972
16	0x3bb15b2b	0.0054124794
17	0x3c1b7f2d	0.00949077
18	0xbd2b16d2	-0.04176981
19	0xbace9230	-0.001576012
20	0x3dc3f148	0.09567505
21	0x3d20461b	0.039129358
22	0x3d0fdb50	0.035121262
23	0x3cb1fff3	0.021728491
24	0x3d1989d5	0.037484962
25	0xbd6be813	-0.05759437
26	0xbdab3d9e	-0.08361362
27	0xbd1e6743	-0.038672697
28	0x3de87bcc	0.113517374
29	0xbd4e29f1	-0.050332967
30	0xbd9accab	-0.075585686
31	0x3d1d4261	0.038393382
32	0xbca71fb7	-0.020400865
33	0xbda45424	-0.08023861
34	0x3c94a962	0.018147174
35	0x3d18b435	0.037281234
36	0xbccfe6af	-0.025378553
37	0xbc68f4fd	-0.014218566
38	0xbdb1890e	-0.08668719
39	0x3dab546c	0.083657116
40	0xbcd92a5b	-0.026509454
41	0x3dc0aba9	0.094077416
42	0x3d677acf	0.056513604
43	0xbcdfd6e8	-0.027324155
44	0xbda3dceb	-0.08001121
45	0xbdba6af7	-0.09102433
46	0x3ddfd67d	0.10929582
47	0xbdb54bf7	-0.0885238
48	0xbd8589fc	-0.06520459
49	0xbd91034e	-0.070807084
50	0x3d93b9bc	0.072131604
51	0x3d60eb08	0.054911643
52	0xbdb979cc	-0.09056434
53	0xbd7d5603	-0.061849605
54	0x3dd526b9	0.104077764
55	0x3d42b27d	0.0475335
56	0xbbec524c	-0.007211959
57	0x3db8feee	0.09032999
58	0xbdb39890	-0.08769333
59	0x3b47b8e2	0.003047519
60	0xbbd5845d	-0.006516023
61	0x3de2d5aa	0.110759094
62	0xbdc16bf8	-0.094444215
63	0x3d6747d2	0.056464978
64	0xbcc341d6	-0.023835104
65	0xbd7c790a	-0.06163887
66	0x3db854cd	0.090005495
67	0xbd4dffe3	-0.05029286
68	0x3d8fc8ea	0.07020743
69	0xbd243eee	-0.040099077
70	0xbd9ff19a	-0.07809754
71	0xbc89b4ae	-0.016809788
72	0xbdc52c41	-0.096275814
73	0xbda7bbc4	-0.0819011
74	0xbd551a9d	-0.052027334
75	0xbca3b068	-0.019981578
76	0x3d72a078	0.059235066
77	0xbc8dc563	-0.017306035
78	0xbda67483	-0.081276916
79	0xbccfec86	-0.025381338
80	0xbd1e11f5	-0.038591344
81	0x3d3eff17	0.04662999
82	0xbd70af37	-0.058760848
83	0xbbca1bad	-0.00616785
84	0xbc23226c	-0.009956937
85	0xbc3c481c	-0.011491802
86	0xbd3813b9	-0.044940684
87	0x3daaa6f8	0.08332628
88	0x3bc664f1	0.0060545136
89	0x3db20e9c	0.08694193
90	0xbd60407d	-0.054749
91	0x3d8942c8	0.06702191
92	0x3cfec3e4	0.031099267
93	0x3c88353b	0.016626945
94	0x3d06f8a1	0.032951955
95	0xbd87f5e3	-0.06638696
96	0x3db01d6c	0.08599362
97	0xbda683f2	-0.08130635
98	0x3a58b744	0.0008267055
99	0xbdc44a7a	-0.09584518
100	0x3d46ce64	0.048536673
101	0x3cd3f63a	0.025874246
102	0x3d38bb7e	0.04510068
103	0xbc6d125f	-0.014469712
104	0x3d502b35	0.050822455
105	0xbdd7212a	-0.105043724
106	0xbd7c8516	-0.06165036
107	0x3cd59c63	0.026075548
108	0x3daf3f7c	0.085570306
109	0x3db1a324	0.08673695
110	0x3d70f382	0.058825977
111	0xbdb1194c	-0.08647403
112	0xbd861e60	-0.06548762
113	0x3dea052f	0.1142677
114	0xbc868982	-0.01642299
115	0x3d33e47f	0.043919083
116	0x3d3a6416	0.045505606
117	0xbd4f338d	-0.050586272
118	0x3d95291b	0.07283231
119	0xbd692e86	-0.056929134
120	0x3d1d34a9	0.0383803
121	0x3c4f0cd6	0.012637338
122	0x3ce27888	0.027645364
123	0xbde16ebe	-0.110074505
124	0xbd998b2f	-0.0749725
125	0x3cdae1d6	0.026719015
126	0x3d2cd696	0.042196833
127	0xbd75239b	-0.05984841
128	0xbd830387	-0.06397157
129	0x3dae6442	0.085152164
130	0xbdbee91d	-0.093218066
131	0xbd94cf46	-0.07266097
132	0x3d18b899	0.03728542
133	0xbc4e5c00	-0.012595177
134	0x3bb60ff2	0.0055561
135	0xbc7cb683	-0.015424374
136	0xbcc693c0	-0.024240375
137	0xbcb1e14c	-0.021713875
138	0xbce8f690	-0.028437883
139	0xbcd2af0a	-0.02571823
140	0x3c74a544	0.0149319805
141	0xbdc1613f	-0.09442376
142	0xbba748b8	-0.0051051043
143	0x3d875e37	0.06609767
144	0xbd9d02fa	-0.07666583
145	0xbc2a7391	-0.01040353
146	0x3d804146	0.0626245
147	0xbcab5e8c	-0.020919107
148	0x3d9a0728	0.07520896
149	0xbd748bee	-0.05970376
150	0x3dcc5f8d	0.09979162
151	0xbce6079d	-0.028079802
152	0xbd64b698	-0.055838197
153	0xbdb67d8b	-0.08910664
154	0x3b97b796	0.0046300394
155	0xbd6c0d4e	-0.057629876
156	0xbd7390dc	-0.05946432
157	0x3cdc2395	0.026872436
158	0x3d18594f	0.037194546
159	0x3c3ae351	0.0114067355
160	0x3d8dfc69	0.06932909
161	0x3d53d770	0.05171913
162	0xbda6b076	-0.08139126
163	0x3d4710cc	0.048600003
164	0xbc2dd8cc	-0.01061077
165	0xbcd8f036	-0.026481729
166	0x3dbe32ba	0.09287019
167	0x3c6f030f	0.014588132
168	0xbda484da	-0.08033152
169	0xbd8917c7	-0.06693988
170	0x3d70d0b5	0.05879279
171	0x3d94898d	0.07252798
172	0xbddcce24	-0.10781506
173	0x3d23d50c	0.0399981
174	0x3d68442a	0.05670563
175	0x3ce89c5e	0.028394874
176	0x3c8e24a1	0.01735145
177	0xbd1a9333	-0.037738036
178	0x3ce22350	0.027604729
179	0x3d7efc6f	0.06225246
180	0xbcc316a2	-0.023814503
181	0xbcebe0be	-0.028793689
182	0xbd4553e6	-0.048175715
183	0xbdabcc3f	-0.08388566
184	0x3c7a3705	0.015271907
185	0xbc32e2f7	-0.01091837
186	0x3db5467e	0.08851336
187	0xbd79aa20	-0.06095326
188	0x3c2ef91e	0.010679511
189	0xbda71657	-0.08158558
190	0xbbdcf3dd	-0.006742938
191	0xbd256ef8	-0.04038903
192	0x3cbd763b	0.023127666
193	0xbcf35893	-0.029705321
194	0xbd6b26e0	-0.05741012
195	0xbd542caf	-0.051800426
196	0x3d95e99f	0.0731995
197	0x3d434afa	0.047678925
198	0xbd2a65d8	-0.041601032
199	0xbc0bfb5b	-0.0085438145
200	0x3d924e03	0.07143786
201	0x3d79468b	0.06085829
202	0xbcc0be48	-0.023528233
203	0xbd73e221	-0.059541825
204	0x3da89651	0.082317956
205	0xbdbacb3c	-0.09120795
206	0xbd902e7a	-0.07040115
207	0xbd542357	-0.051791515
208	0xbd684bb6	-0.05671283
209	0xba822340	-0.0009928718
210	0x3d7acfca	0.06123332
211	0x3d007efa	0.031371094
212	0x3cf57f78	0.029968008
213	0x3cb416c6	0.021983515
214	0xbd6ced73	-0.057843637
215	0xbdc8e13d	-0.09808586
216	0xbd22f918	-0.039788336
217	0xbd9d825c	-0.0769088
218	0x3c68ea3d	0.014216003
219	0x3d849b7f	0.06474971
220	0x3c8494fd	0.016184324
221	0x3d2538ae	0.040337257
222	0xbd8e2fa7	-0.06942683
223	0x3d81bbd0	0.063346505
224	0x3da971ea	0.082736805
225	0x3de38b15	0.11110512
226	0x3cbe3ce4	0.023222394
227	0x3c08e747	0.008355922
228	0x3d492e74	0.049116567
229	0x3de28373	0.11060228
230	0x3d412e15	0.047163088
231	0x3c8c87d1	0.017154606
232	0x3be42012	0.006961831
233	0x3d5f811a	0.05456648
234	0xbce31bfc	-0.027723305
235	0xbd0f9bbe	-0.035060637
236	0xbd8cde54	-0.06878343
237	0x3c8f5d61	0.017500581
238	0xbd3242a6	-0.043520592
239	0xbd9e3f31	-0.077268966
240	0xbcb0f426	-0.021600794
241	0x3d3d16af	0.04616421
242	0x3c400d66	0.011721944
243	0xbdde03df	-0.10840582
244	0x3d851152	0.06497444
245	0x3d1bb48b	0.038013976
246	0x3d5a1d73	0.05325074
247	0x3d89b143	0.06723263
248	0xbdcb54a9	-0.09928257
249	0x3dc39d82	0.095515266
250	0xbb84188f	-0.004031248
251	0xbd26b1f8	-0.040697068
252	0xbdc1411e	-0.09436248
253	0x3d3e2c8a	0.046429195
254	0x3d6f6689	0.058447395
255	0x3d2c452c	0.042058155

weight_hh_l0 f4 [400, 100]
0	0x3d341f71	0.043975297
1	0x3cfd7df7	0.030943854
2	0x3d6fbfce	0.05853253
3	0xbbdb869e	-0.006699397
4	0x3c55be86	0.013045913
5	0x3d0ad149	0.033890996
6	0x3ae65f76	0.0017576057
7	0xbda192fc	-0.07889363
8	0x3d50b163	0.05095042
9	0x3c90e9c9	0.017689602
10	0xbd81ce1e	-0.06338142
11	0x3c26063e	0.010133324
12	0xbd632897	-0.05545863
13	0xbd019f1d	-0.031645883
14	0x3dae02d0	0.0849663
15	0xbdc9219c	-0.098208636
16	0xbd39c90e	-0.045357756
17	0xbd815f74	-0.06317034
18	0xbd86d67b	-0.06583878
19	0xbd53d33e	-0.051715128
20	0x3c7b878e	0.015352143
21	0xbd1e27a3	-0.03861202
22	0xbd0921d8	-0.03347954
23	0x3dad7a3e	0.084705815
24	0xbda9071b	-0.082533084
25	0xbc378526	-0.011201179
26	0xbd91acec	-0.0711306
27	0xbdbdc013	-0.09265151
28	0xbc16794e	-0.009184195
29	0xbd823e4d	-0.06359539
30	0xbd6cac16	-0.0577813
31	0x3d8b4ae0	0.06801391
32	0xbd5a4d10	-0.05329615
33	0x3cee9642	0.029124383
34	0xbda58047	-0.080811076
35	0x3d04f3c0	0.03245902
36	0xbdcb5eec	-0.09930214
37	0xbca4f76f	-0.020137517
38	0xbd4487ff	-0.04798126
39	0xbdd91323	-0.10599353
40	0xbd94af96	-0.07260053
41	0xbd7b0bd0	-0.061290562
42	0x3c85efee	0.016349759
43	0x3d1221b0	0.03567666
44	0xbc87fe9c	-0.0166009
45	0xbc7eb656	-0.015546402
46	0x3c00e291	0.007866518
47	0x3dd43a29	0.10362656
48	0xbd4a634e	-0.04941111
49	0x3da193bb	0.078895055
50	0x3d2c0261	0.041994456
51	0xbbee5c8c	-0.007274216
52	0x3c81b538	0.015833482
53	0xbb1a355c	-0.002353034
54	0x3d956cdb	0.07296153
55	0x3d37a746	0.04483726
56	0xbc3cd80d	-0.01152612
57	0x3dcfdcd6	0.10149543
58	0x3c7657db	0.015035595
59	0xbdb94da7	-0.09048014
60	0x3d310e39	0.043226454
61	0x3c859935	0.016308406
62	0x3d2f1d98	0.042752832
63	0xbd319a60	-0.043360114
64	0xbddd5f10	-0.10809147
65	0xbcc0b936	-0.023525815
66	0xbda35599	-0.07975311
67	0x3d48aac3	0.048990976
68	0x3d8c0c86	0.06838326
69	0xbd585372	-0.052813955
70	0xbdc0ec2f	-0.094200484
71	0xbd0e1bfc	-0.034694657
72	0x3ba51df1	0.0050389697
73	0x3dd3eff3	0.10348501
74	0x3d01f7f2	0.0317306
75	0x3da114c9	0.078652926
76	0xbd828fbd	-0.06375072
77	0xbc23dae9	-0.010000923
78	0x3c463ddd	0.01209971
79	0xbd964d8e	-0.07339011
80	0xbca73a02	-0.020413402
81	0x3d0a386c	0.033745214
82	0xbd79c9f4	-0.060983613
83	0x3dd9c3b0	0.106330276
84	0xbd4211c4	-0.047380224
85	0xbdb7cfc9	-0.08975179
86	0x3dc477d2	0.095931664
87	0x3d18128b	0.03712706
88	0x3da0eee8	0.07858068
89	0xbda020d2	-0.0781876
90	0xbd861a3c	-0.065479726
91	0xbdb00be0	-0.08596015
92	0xbd217049	-0.039413724
93	0x3da7cfaf	0.081939094
94	0xbd038770	-0.032111585
95	0xbb9bf952	-0.004759946
96	0x3d1a6c54	0.037700966
97	0xbd007bdd	-0.031368125
98	0x3cd10e02	0.025519375
99	0x3da66211	0.081241734
100	0x3a2b999c	0.0006546022
101	0xbd36d7b6	-0.04463931
102	0x3cec7be6	0.028867673
103	0xbd9ab7e3	-0.07554605
104	0xbda34ddd	-0.079738356
105	0xbdd96399	-0.106147
106	0xbd2a0679	-0.04151008
107	0x3ca8ff1a	0.020629454
108	0x3c34aba6	0.011027252
109	0xba6c4624	-0.00090131373
110	0xbdaffdbc	-0.08593318
111	0x3d71e916	0.05906018
112	0x3c5ac8d2	0.013353543
113	0xbd80ff9f	-0.06298756
114	0x3dba8b89	0.091086455
115	0x3d7d09ed	0.061777044
116	0x3da63c74	0.08116999
117	0x3daf4fab	0.08560117
118	0xbd6b1537	-0.05739328
119	0xbc6fe247	-0.014641351
120	0x3d04749d	0.032337774
121	0x3dc49d1d	0.096002795
122	0x3d4df243	0.050279867
123	0x3cb42958	0.02199237
124	0xbc8b6994	-0.017018117
125	0x3d97e27d	0.07416246
126	0x3d8ebc50	0.069695115
127	0x3da4a2f5	0.08038894
128	0xbd6abf33	-0.057311248
129	0x3da2fa50	0.079578996
130	0xbd73ea51	-0.059549633
131	0x3b2043e4	0.0024454528
132	0xbdab1801	-0.08354188
133	0x3dcf0c97	0.10109823
134	0x3c283542	0.010266604
135	0xbc57d81b	-0.013174082
136	0x3d9d3e42	0.0767789
137	0x3d72d6ca	0.05928687
138	0x3d89202d	0.0669559
139	0xbaf5ea8a	-0.0018761915
140	0x3cb638de	0.022243913
141	0x3da02f3d	0.0782151
142	0xbc420336	-0.011841586
143	0xbd82e1c3	-0.06390717
144	0xbdc7ee05	-0.097621955
145	0xbc8aa7e6	-0.016925763
146	0x3cf2b97e	0.029629465
147	0xbd1afeb1	-0.03784055
148	0xbcc38a8a	-0.023869772
149	0x3bc0c247	0.0058825347
150	0xbd3061d5	-0.04306205
151	0xbce40441	-0.02783406
152	0x3d078fef	0.03309625
153	0x3d2ae5a9	0.041722927
154	0x3ce5c39d	0.028047377
155	0x3da5f4c6	0.081033275
156	0x3d15f4ab	0.036610287
157	0x3c871a6e	0.016492095
158	0x3cbd0260	0.023072422
159	0x3da0bd76	0.07848637
160	0x3c0ed62a	0.008718053
161	0xbc646694	-0.013940472
162	0x3d14cf85	0.03633072
163	0xbdca49e2	-0.09877373
164	0x3dae0f60	0.08499026
165	0x3dcc5caf	0.099786155
166	0xbc5cf9e8	-0.013487317
167	0xbd08e64f	-0.033422764
168	0xbc8502d7	-0.016236706
169	0xbcf87729	-0.030330257
170	0xbb9fabf8	-0.004872795
171	0x3dac8565	0.084238805
172	0x3d406896	0.04697474
173	0x3da9b9fb	0.08287426
174	0xbc052fef	-0.008129104
175	0xbd7cb4a2	-0.061695702
176	0xbcce36c2	-0.025172595
177	0xbd0dd8e9	-0.03463069
178	0x3c157d8b	0.00912417
179	0x3c40030c	0.011719476
180	0x3d0f3d3a	0.0349705
181	0x3d65b928	0.056084782
182	0x3d487a9e	0.04894506
183	0xbd0ab0ea	-0.033860125
184	0xbd6764c1	-0.05649257
185	0xbd8ef5a7	-0.06980448
186	0xbd008c10	-0.031383574
187	0xbde6b7c5	-0.1126552
188	0xbd8b2721	-0.067945726
189	0x3d356395	0.044284422
190	0x3d2fccf7	0.04292008
191	0xbd947cc1	-0.072503574
192	0x3db022be	0.086003765
193	0xbd818a57	-0.06325214
194	0xbb77db9e	-0.003782011
195	0x3ca5161e	0.020152148
196	0x3dccc0bb	0.09997698
197	0xbd95d5ce	-0.07316171
198	0x3d684267	0.05670395
199	0xbc84cdd1	-0.016211422
200	0x3d565c1d	0.05233394
201	0x3ddf1bf5	0.10894004
202	0x3cb959a2	0.022625748
203	0x3d5ef117	0.05442914
204	0x3cd1172c	0.025523745
205	0x3d924882	0.07142736
206	0xbd6a73df	-0.05723941
207	0xb91c8a20	-0.00014928775
208	0xbcdb995a	-0.026806522
209	0xbda42865	-0.08015517
210	0xbc63a2f8	-0.013893835
211	0xbdc26739	-0.094923444
212	0xbc6cc112	-0.014450328
213	0x3d8bf20e	0.06833278
214	0x3d946e9d	0.0724766
215	0x3d23dafc	0.04000376
216	0x3d0669bc	0.03281568
217	0xbd0c396c	-0.03423445
218	0x3cf9d337	0.030496223
219	0xbdc899ff	-0.097949974
220	0xbd16c974	-0.036813214
221	0x3d1488ad	0.036263157
222	0x3d6f186c	0.0583729
223	0x39429640	0.00018557254
224	0x3d216fae	0.039413147
225	0x3c9e737f	0.019342182
226	0x3d8fae92	0.070157185
227	0x3c8d433b	0.017243972
228	0x3c6255a0	0.01381436
229	0x3c3e10e6	0.011600709
230	0xbca0ea0f	-0.019642858
231	0x3d883084	0.066498786
232	0x3d5565ae	0.052098922
233	0x3c07e730	0.0082948655
234	0xbd1a906a	-0.03773538
235	0x3ca9e811	0.02074054
236	0x3cdcc029	0.026947098
237	0xbcf19e6b	-0.029494485
238	0x3d816ce8	0.063196
239	0x3c926bcb	0.017873665
240	0xbd7bb34c	-0.061450288
241	0xbd850cd5	-0.06496588
242	0x3bb5dde3	0.0055501326
243	0xbdd66cfe	-0.10470007
244	0x3d4e53c2	0.050372846
245	0xbdbef11f	-0.09323334
246	0x3c1863ce	0.009301139
247	0x3dc39c11	0.09551252
248	0x3d57737f	0.05260038
249	0x3d9474bb	0.07248827
250	0x3da44928	0.08021766
251	0xbdc404d3	-0.09571233
252	0xbda04a31	-0.07826651
253	0x3cc4d6da	0.02402823
254	0x3aff7c3c	0.0019491981
255	0x3c8cd614	0.017191924

bias_ih_l0 f4 [400]
0	0x3d90e436	0.07074778
1	0x3d2624de	0.040562503
2	0x3d923c86	0.0714045
3	0xbda7e20e	-0.081974134
4	0x3d9d4dfb	0.07680889
5	0xbdaa01b3	-0.08301105
6	0x3da9aac2	0.082845226
7	0x3cfac4e8	0.03061147
8	0x3db7e332	0.08978881
9	0x3d8c4a25	0.068500794
10	0x3d9986c3	0.07496407
11	0xbc36ea14	-0.011164207
12	0xbdb591f6	-0.088657305
13	0x3cbb4a9f	0.02286273
14	0xbd26bb5a	-0.040706016
15	0x3c1a4bc1	0.009417475
16	0x3daa5865	0.08317641
17	0xbd7b798f	-0.061395224
18	0xbd5d5f90	-0.054046214
19	0x3d0f2bd2	0.0349539
20	0x3d33938b	0.04384188
21	0xbc372a0a	-0.0111794565
22	0xbd8c7f7e	-0.06860255
23	0x3d9b9546	0.07596831
24	0xbda0c14f	-0.07849371
25	0x3d2e6b12	0.04258258
26	0x3d8eea3d	0.06978271
27	0x3d96f729	0.07371361
28	0x3dad9967	0.08476525
29	0x3d3a42d0	0.045473874
30	0x3d9afccd	0.07567749
31	0x3caf1ff7	0.021377547
32	0x3d33b439	0.043873046
33	0xbc75ce4b	-0.015002797
34	0x3d09c154	0.033631638
35	0xbd98ac02	-0.07454683
36	0x3ce104c0	0.027468085
37	0xbb6b062c	-0.0035861833
38	0xbce17c13	-0.027524984
39	0x3c8d1396	0.017221253
40	0x3d4d81be	0.05017256
41	0xbd10998e	-0.03530269
42	0xbdd6ff9e	-0.10497974
43	0xbc9c98e5	-0.019115875
44	0xbd0ef541	-0.03490186
45	0xbd9e0479	-0.07715697
46	0x3b5b4683	0.0033458776
47	0xbccba172	-0.024857257
48	0x3d0707ab	0.032966297
49	0xbcf23efa	-0.029571045
50	0x3d5eaed8	0.054365963
51	0x3d87a8cb	0.066239916
52	0xbd0726c4	-0.032995954
53	0xbaf484fc	-0.0018655355
54	0x3d148ec3	0.03626896
55	0x3b9c606a	0.0047722356
56	0xbd6bd11f	-0.05757248
57	0x3cc82c0b	0.024435064
58	0xbd9a7fd2	-0.07543911
59	0xbd9c7c04	-0.076408416
60	0xbdae337e	-0.08505915
61	0xbda2e568	-0.07953912
62	0x3b4aa6ab	0.0030922096
63	0xbd0b51fc	-0.034013733
64	0x3d5246e7	0.05133715
65	0xbba299e4	-0.004962193
66	0xbc2aef60	-0.010433048
67	0xbcda88c4	-0.026676543
68	0x3d4655ab	0.048421543
69	0x3d0bd04e	0.0341342
70	0x3d16021e	0.036623113
71	0x3cbc0b95	0.022954741
72	0x3de55eda	0.11199732
73	0x3bdf928e	0.0068228906
74	0xbcd036c8	-0.025416747
75	0x3d9d5543	0.07682278
76	0x3d1cf3ff	0.03831863
77	0x3dbb3b25	0.0914214
78	0x3d8dd649	0.06925637
79	0xbceed48a	-0.02915408
80	0xbce57069	-0.028007703
81	0x3b9fa9df	0.004872545
82	0xbc83bf48	-0.016082421
83	0x3d51615f	0.05111825
84	0xbcf87c4a	-0.030332703
85	0xbd37e584	-0.044896618
86	0x3d9d3b27	0.07677298
87	0x3dd121a4	0.102114946
88	0xbdafd34f	-0.08585226
89	0x3d520dfe	0.051282875
90	0x3dbe69d2	0.092975274
91	0xbd1aa449	-0.03775433
92	0x3d32b3d0	0.043628514
93	0x3c4cdb34	0.012503434
94	0xbd08333a	-0.03325198
95	0xbd76a09e	-0.06021177
96	0xbbf2916f	-0.007402591
97	0x3c927159	0.017876314
98	0x3c787852	0.015165405
99	0x3d919373	0.07108202
100	0xbd8d48f4	-0.0689868
101	0x3de13f11	0.10998357
102	0xbd371805	-0.04470064
103	0x3da5648a	0.08075817
104	0x3d81c881	0.06337071
105	0xbd0643ee	-0.032779627
106	0xbd0053b4	-0.031329826
107	0x3d0cc64c	0.034368798
108	0x3d23eade	0.04001891
109	0xbd3d304f	-0.04618865
110	0x3dc68aa2	0.09694411
111	0x3ae1eb6e	0.0017236301
112	0x3d83ba60	0.064320326
113	0xbd58e03f	-0.052948233
114	0xbce5c8df	-0.028049884
115	0xbc51af44	-0.012798134
116	0x3bdb993f	0.006701618
117	0xbd8d5e06	-0.06902699
118	0x3c362c10	0.011118904
119	0xbae5181c	-0.0017478499
120	0xbdca5ea1	-0.0988133
121	0x3d90a076	0.070618555
122	0x3dc98dc6	0.09841494
123	0x3d46b4a2	0.04851211
124	0xbd3545be	-0.044255964
125	0x3dbb41cf	0.09143411
126	0x3de1b3bc	0.1102061
127	0x3db63d2d	0.08898387
128	0xbd84c5bd	-0.06483028
129	0x3d74eff9	0.05979917
130	0xbda20e17	-0.07912844
131	0xbd14004f	-0.036133107
132	0x3cbf40c9	0.023346322
133	0x3dc15188	0.09439379
134	0x3d8beed4	0.06832662
135	0xbd900bca	-0.070334986
136	0x3d71fa1b	0.05907641
137	0x3bc14eec	0.005899301
138	0xbd405e2a	-0.0469648
139	0xbc319861	-0.010839553
140	0xbd94a189	-0.07257373
141	0x3ddb40c1	0.1070571
142	0x3d648ddd	0.055799354
143	0xbb64cf44	-0.003491358
144	0xbc95b689	-0.018275516
145	0xbd02f81e	-0.031974904
146	0x3d8c6fa4	0.06857231
147	0x3de45f2f	0.11150967
148	0x3ca529eb	0.02016159
149	0x3d5196eb	0.051169317
150	0x3d0d4e86	0.034498714
151	0xbcb55f40	-0.022140145
152	0xbbc81efd	-0.0061072097
153	0xbd91631d	-0.070989825
154	0x3de67fb5	0.11254827
155	0x3c83200c	0.016006492
156	0xbd0d452a	-0.034489788
157	0x3cd76a2c	0.026295744
158	0xbda6e890	-0.081498265
159	0x3d15f67d	0.036612023
160	0xbca2e12e	-0.019882765
161	0x3ddaad59	0.10677595
162	0x3c0362c0	0.008019149
163	0x3dd6394f	0.104601495
164	0x3da9104b	0.08255061
165	0xbc8f8e05	-0.017523775
166	0xbc0c4693	-0.008561748
167	0x3d710822	0.058845647
168	0xb9d05780	-0.00039738044
169	0xbc6c2db0	-0.01441519
170	0x3dd3760e	0.103252515
171	0x3d06480b	0.03278355
172	0x3dc7e7aa	0.09760983
173	0x3d5f6e43	0.054548513
174	0x3bce8cdb	0.0063034124
175	0xbda95917	-0.08268946
176	0x3c869248	0.016427174
177	0x3d841f20	0.06451249
178	0xbdb44c34	-0.08803597
179	0xbd931a04	-0.071826965
180	0x3d874804	0.06605533
181	0x3d8f0d57	0.06984966
182	0x3d2ea150	0.04263431
183	0x3dcee5c3	0.10102417
184	0x3d21676b	0.039405268
185	0x3da20773	0.07911577
186	0x3ba00e02	0.0048844824
187	0xbd8fefad	-0.070281364
188	0xbcc35138	-0.023842439
189	0x3d9abb29	0.07555229
190	0xbb26b0b8	-0.0025434922
191	0xbc709a74	-0.014685262
192	0xbd325d7e	-0.043546192
193	0x3d1e03c3	0.038577806
194	0x3dceefc7	0.10104328
195	0xbd1b8f08	-0.037978202
196	0x3d04d9b0	0.032434165
197	0xbd5344f1	-0.05157942
198	0xbd89b53e	-0.06724022
199	0x3caa596d	0.020794595
200	0xbdb299e5	-0.08720759
201	0xbcd321f1	-0.02577302
202	0x3d84d7de	0.06486486
203	0x3db6bce6	0.08922748
204	0x3db5a26b	0.088688694
205	0xbd8f5ffe	-0.07000731
206	0xbde1d6b2	-0.11027278
207	0x3c2cdb74	0.010550369
208	0x3d2e235c	0.04251419
209	0xbdbe0e8b	-0.092801176
210	0x3d7139d0	0.058893025
211	0x3d0b9db9	0.034085963
212	0x3d4c6a5c	0.04990612
213	0x3dc4a0d4	0.09600988
214	0xbd980d57	-0.074244194
215	0xbd261e08	-0.040555984
216	0x3dd8a7f1	0.10578907
217	0x3bf26787	0.0073975953
218	0xbd270f8c	-0.04078631
219	0xbd301af1	-0.042994443
220	0x3c121c4a	0.008917877
221	0x3d8bb9fe	0.068225846
222	0xbdd8bd60	-0.105829954
223	0x3d92c21b	0.07165929
224	0xbd49ec44	-0.049297586
225	0x3d66e855	0.056373913
226	0x3c811e11	0.015761407
227	0xbda4795a	-0.080309585
228	0xbd99a173	-0.07501497
229	0x3dcf7ccb	0.10131224
230	0xbc99973e	-0.018748876
231	0x3d44da85	0.04805996
232	0xbda102f5	-0.07861892
233	0xbd02554e	-0.031819634
234	0x3d3e36ce	0.046438985
235	0x3d116c6f	0.0355038
236	0x3c83ca14	0.01608757
237	0x3d020e90	0.03175217
238	0xbc07d55e	-0.008290617
239	0x3c189ef9	0.009315246
240	0x3d94e264	0.07269743
241	0xbd82c712	-0.06385626
242	0x3d4276c3	0.04747654
243	0x3da726bb	0.08161684
244	0xbdb4a4ca	-0.088204935
245	0x3c8e71c8	0.01738824
246	0x3c8d5898	0.017254159
247	0x3ccfc2fe	0.025361534
248	0xbd67a7f8	-0.05655667
249	0xbd3c5d5d	-0.045987476
250	0x3dcdd626	0.10050611
251	0x3d9852c1	0.07437659
252	0x3d87ec6d	0.066368915
253	0xbcaf2d47	-0.021383895
254	0xbd912dd7	-0.070888214
255	0x3d28289c	0.041054353

bias_hh_l0 f4 [400]
0	0xbd37b4b9	-0.044850085
1	0x3dae43a3	0.085089944
2	0x3c51cce8	0.012805201
3	0x3d8d651e	0.06904052
4	0xbaeeeb80	-0.0018228143
5	0xbd55e586	-0.052220844
6	0xbd825ab5	-0.06364957
7	0xbd46c905	-0.04853155
8	0x3dcd6bd4	0.10030332
9	0x3c5cbe7f	0.013473152
10	0xbd6f8a92	-0.05848176
11	0x3de98774	0.11402789
12	0xbc315de0	-0.010825604
13	0xbd9ccab2	-0.076558486
14	0xbc318ad8	-0.010836326
15	0x3ca10f04	0.01966048
16	0x3d04f69e	0.032461755
17	0xbca411e5	-0.020028064
18	0xbc68f744	-0.014219109
19	0x3c4c23df	0.012459724
20	0x3d1745db	0.036931854
21	0x3d16e6dd	0.036841262
22	0x3d2b2dbd	0.041791666
23	0x3da33726	0.07969503
24	0x3d5da618	0.054113477
25	0x3daa7934	0.08323899
26	0x3cffca07	0.031224264
27	0xbdc7100b	-0.09719857
28	0x3a7d286c	0.00096572074
29	0xbd4fb026	-0.050705098
30	0xbc4fd471	-0.012684927
31	0x3cd277f6	0.025691967
32	0xba519150	-0.00079943705
33	0x3d825832	0.06364478
34	0xbce4809f	-0.027893363
35	0x3d9ce84a	0.07661493
36	0x3d96a3c5	0.07355455
37	0x3dae954d	0.085245706
38	0x3da8376f	0.08213698
39	0xbd89483e	-0.06703232
40	0x3daa3dda	0.083125785
41	0xbdb10ad2	-0.08644642
42	0xbd8ee500	-0.06977272
43	0xbd59923d	-0.05311798
44	0x3d300a35	0.042978484
45	0xbd73f979	-0.059564088
46	0xbd63fe94	-0.055662706
47	0x3d996117	0.074892215
48	0x3b40ee35	0.0029438857
49	0xbd6e6b5f	-0.058207866
50	0x3d2bd2a8	0.041948944
51	0xbcfae82b	-0.030628284
52	0xbd8121c0	-0.063052654
53	0xbd187439	-0.037220214
54	0xbd753682	-0.059866436
55	0xbdb24c79	-0.08705992
56	0xb8551500	-5.0802715e-05
57	0xbd9a1e3e	-0.075252995
58	0x3dcc39f8	0.09971994
59	0x3d643332	0.055712886
60	0xbd908b21	-0.07057787
61	0x3c316dd1	0.010829405
62	0xbd8fb18a	-0.07016285
63	0x3d4b8400	0.049686432
64	0x3db30693	0.08741488
65	0xbd945d51	-0.07244361
66	0xbd1f88ec	-0.03894894
67	0x3c32a738	0.010904126
68	0xbb7d5952	-0.0038657975
69	0x3dceca44	0.10097173
70	0x3d1eba80	0.03875208
71	0xbd2b42ba	-0.041811682
72	0x3b9dff10	0.0048216656
73	0x3d2bfaeb	0.04198734
74	0x3cbe6b1e	0.023244437
75	0x3cbdb315	0.023156682
76	0xbdbfdb9f	-0.09368061
77	0x3d9cd303	0.07657435
78	0x3cd026c3	0.025409108
79	0x3d8296a1	0.063763864
80	0xbd52c586	-0.051457904
81	0xbc6ed667	-0.014577485
82	0x3d0750c2	0.033036
83	0x3d4848df	0.04889762
84	0x3c49993a	0.012304598
85	0x3d9ac9b8	0.07558006
86	0xbda23c33	-0.07921638
87	0x3d9fe3b6	0.07807104
88	0xbdb7b8df	-0.08970808
89	0xbdaf58d5	-0.08561865
90	0x3db0729a	0.086156085
91	0x3d3dba57	0.046320286
92	0x3c9943e1	0.018709125
93	0xbdcd996d	-0.10039029
94	0x3dbe35bb	0.09287592
95	0xbcfd4cff	-0.030920504
96	0xbd86f500	-0.06589699
97	0x3d22c849	0.039741788
98	0xbd780b26	-0.060557507
99	0x3d1b78be	0.037956946
100	0xbdc4f3a7	-0.096167855
101	0x3db411dd	0.0879247
102	0x3d936a55	0.071980156
103	0x3d434819	0.04767618
104	0x3d23c08d	0.039978553
105	0xbda7fdec	-0.08202729
106	0x3dc13bee	0.09435259
107	0x3d9b679f	0.075881235
108	0xbd64e32e	-0.055880718
109	0xbca7d681	-0.020488026
110	0xbd70fc3d	-0.058834303
111	0x3c7c592e	0.0154021215
112	0xbdd2c7a7	-0.10291987
113	0xbd8d4359	-0.06897611
114	0xbd90050d	-0.07032213
115	0x3ba75398	0.0051064007
116	0xbd91f19c	-0.071261615
117	0xbd1fa46d	-0.038975168
118	0x3d1dd482	0.03853274
119	0x3d7b6fcd	0.06138592
120	0x3c3ae3a9	0.0114068175
121	0x3da2114a	0.07913454
122	0x3d48a17b	0.048982125
123	0x3d96c005	0.073608436
124	0xbda1abf7	-0.07894128
125	0xbdc8a588	-0.097971976
126	0xbd030501	-0.031987194
127	0xbc10cd3e	-0.008837996
128	0x3cc66663	0.024218744
129	0x3d8546c5	0.06507639
130	0xbddfe6ec	-0.10932717
131	0xbcef3a4c	-0.029202603
132	0xbdd9fa8a	-0.1064349
133	0x3cdba2d4	0.026811041
134	0xbd9cceac	-0.07656607
135	0x3bbf91e1	0.0058462475
136	0xbd8da8bf	-0.069169514
137	0x3d36c584	0.04462196
138	0x3cb59d22	0.022169653
139	0x3d76e9f2	0.0602817
140	0xbd6ca87f	-0.057777878
141	0xbd953e41	-0.072872646
142	0x3d869765	0.06571845
143	0xbd88b70b	-0.06675538
144	0x3d60a500	0.054844856
145	0xbd3abe82	-0.04559184
146	0x3dab57b6	0.08366339
147	0xbd76a0ca	-0.060211934
148	0x391a61a8	0.00014722964
149	0xbd28cb49	-0.041209493
150	0xbabe463c	-0.0014516781
151	0x3d4bec2e	0.049785785
152	0x3d25b066	0.04045143
153	0x3d3704a1	0.04468215
154	0x3d9b9f35	0.07598726
155	0xbccdc4a0	-0.025118172
156	0xbda25ae0	-0.07927489
157	0x3d3605f4	0.04443927
158	0x3b927a5a	0.004470152
159	0xbcef4f56	-0.029212635
160	0xbdc8ae0b	-0.09798821
161	0x3d5661f1	0.052339498
162	0xbd8ef8ac	-0.06981024
163	0xbdae8f71	-0.08523453
164	0xbd3c88ab	-0.046028774
165	0xbcbfaf4a	-0.023399014
166	0x3ca29976	0.019848567
167	0xbda2ed34	-0.07955399
168	0x3d5fb1cc	0.05461292
169	0xbd888e72	-0.06667794
170	0x3d4d7b9b	0.050166707
171	0x3cfdeaae	0.030995693
172	0x3cd4a4d5	0.025957504
173	0x3d84afee	0.064788684
174	0x3d569d55	0.052396137
175	0x3c980686	0.018557798
176	0xbdad9428	-0.08475524
177	0x3cb2fd61	0.021849336
178	0xbc5bbd30	-0.013411805
179	0xbd88dedc	-0.06683132
180	0xbcfad546	-0.030619275
181	0x3dcd08e9	0.10011465
182	0x3ca64f8a	0.020301599
183	0xbc4d2550	-0.012521103
184	0x3c87f32d	0.016595447
185	0x3dc767e3	0.09736612
186	0x3be1a1f2	0.0068857605
187	0x3d2050a0	0.03913939
188	0xbd42e706	-0.047583602
189	0x3c92493a	0.017857183
190	0x3ddb1f57	0.10699337
191	0x3d1bbe73	0.038023423
192	0xbd8d5469	-0.069008656
193	0xbdc5f532	-0.09665908
194	0x3d91af7b	0.07113548
195	0xbdb9863d	-0.09058807
196	0xbd0ac02a	-0.03387467
197	0xbb9b0e08	-0.0047318973
198	0x3cc2d8a0	0.023784935
199	0xbcb65917	-0.022259278
200	0xbc9c49e9	-0.019078212
201	0xbd5bc6b8	-0.05365631
202	0xbd846a29	-0.06465561
203	0x3da8227a	0.08209701
204	0x3d3c114d	0.045914937
205	0xbd15407e	-0.036438458
206	0xbd2abbd2	-0.041683026
207	0xbd582509	-0.052769694
208	0x3db9dd5f	0.09075426
209	0xbce2835a	-0.027650524
210	0x3d35ac84	0.044353977
211	0xbd1f9755	-0.03896268
212	0x3d89117c	0.06692788
213	0x3cf3b4c0	0.029749274
214	0x3cf7ad1a	0.030233908
215	0x3ce56e54	0.02800671
216	0x3d286f51	0.041121785
217	0x3d7bc8c2	0.061470754
218	0xbda8d709	-0.0824414
219	0xbd2daf9f	-0.042403813
220	0x3d944bd8	0.072410285
221	0xbd9c0e64	-0.07619932
222	0x3d2727ee	0.040809564
223	0xbb92704c	-0.0044689532
224	0x3dbadbb7	0.091239385
225	0xbddacc99	-0.10683555
226	0x3b9b1662	0.004732893
227	0x3d9651e8	0.07339841
228	0xbb66411c	-0.0035134023
229	0xb9ae9620	-0.00033299718
230	0xbdc732e2	-0.09726502
231	0xba6c47b8	-0.00090133725
232	0x3db3203a	0.08746381
233	0xbddcf6c4	-0.10789254
234	0xbd62ace0	-0.055340648
235	0xbda6a5a1	-0.0813706
236	0x3cb41f08	0.021987453
237	0xbd2fede7	-0.04295149
238	0x3da1a0d2	0.07892002
239	0xbd7277f4	-0.059196427
240	0x3d04c061	0.03241003
241	0x3db736fe	0.08946036
242	0xbd66b175	-0.05632158
243	0xbdbaecc2	-0.09127189
244	0x3cae2d46	0.021261822
245	0x3d2d6564	0.04233302
246	0xbd997c3f	-0.07494401
247	0xbd066885	-0.03281452
248	0x3da6d405	0.08145908
249	0xbd9dfa92	-0.07713808
250	0x3d5d60bb	0.054047327
251	0xbbcb733c	-0.0062088054
252	0xbd6e869d	-0.058233846
253	0xbd602918	-0.05472669
254	0xbc2bac9f	-0.010478168
255	0xbc928aa4	-0.017888375

weight_ih_l0_reverse f4 [400, 100]
0	0xbd82f235	-0.063938536
1	0x3da94e2c	0.08266863
2	0xbd4a2928	-0.049355656
3	0xbddeaa58	-0.10872334
4	0xbb263786	-0.0025362684
5	0xbc791b04	-0.015204195
6	0x3dbd2b8f	0.09236824
7	0xbd82b554	-0.06382242
8	0xbd5a0eaa	-0.05323664
9	0xbd649b03	-0.055811893
10	0xbdc90af1	-0.0981654
11	0xbdc3f590	-0.09568322
12	0xbdcbbc3f	-0.099480145
13	0xbd9e58a6	-0.07731752
14	0x3cba3f72	0.022735331
15	0xbd1a2d3f	-0.037640806
16	0x3cff5c3c	0.03117191
17	0xbdb86f79	-0.09005637
18	0xbda8f3d2	-0.0824963
19	0xbd2ac34b	-0.041690152
20	0xbcd695c0	-0.026194453
21	0xbd807aca	-0.0627342
22	0xbd5eaeba	-0.05436585
23	0xbcd4796d	-0.025936807
24	0xbdca259d	-0.098704554
25	0x3bf0a8da	0.0073443474
26	0xbdd55f2c	-0.10418543
27	0x3d0e031b	0.03467093
28	0x3bbe304c	0.0058040973
29	0x3dab73ff	0.08371734
30	0x3bceeb39	0.006314662
31	0xbce41e2f	-0.027846424
32	0x3db49623	0.08817699
33	0xbda3983e	-0.07988022
34	0xbccfc2be	-0.025361415
35	0xbcebbc9d	-0.028776461
36	0xbd995113	-0.07486167
37	0xbd35ecc4	-0.04441525
38	0xbdd7d675	-0.10538951
39	0x3d515520	0.051106572
40	0xbc3dcbfc	-0.011584278
41	0xbb6ede22	-0.003644832
42	0x3cdc485a	0.026889969
43	0x3da639dd	0.08116505
44	0xbd1c99b4	-0.03823252
45	0xbda9fd8a	-0.08300312
46	0x3d457eed	0.04821675
47	0xbda63f41	-0.081175335
48	0xbd8d8698	-0.06910437
49	0xbd9d8a66	-0.07692413
50	0x3dabb22c	0.08383593
51	0xbde7b4ba	-0.11313768
52	0x3d4de3eb	0.050266188
53	0xbda00120	-0.078127146
54	0xbd6f8eb9	-0.05848572
55	0x3c9ff8b7	0.019527776
56	0xbd87048e	-0.065926656
57	0x3cf6b424	0.030115195
58	0xbd9b30ec	-0.075776905
59	0x3d640e34	0.055677608
60	0xbbe4d119	-0.006982934
61	0x3d041960	0.032250762
62	0x3dc4c02b	0.09606966
63	0xbd2f60a3	-0.04281677
64	0x3ca5088e	0.02014568
65	0xbc97ae6b	-0.018515786
66	0x3d26a7af	0.04068726
67	0x3d897f26	0.06713705
68	0xbb3bea00	-0.002867341
69	0xbcc96190	-0.024582654
70	0x3da2d14f	0.07950079
71	0xbda5275e	-0.08064149
72	0x3d622f98	0.05522117
73	0x3d78ef65	0.06077518
74	0xbcf3db3c	-0.029767625
75	0xbd99d7b6	-0.07511847
76	0x3d88336c	0.06650433
77	0xbd0ed616	-0.034872137
78	0xbd398386	-0.045291446
79	0xbd30058e	-0.042974047
80	0xbd09ad8b	-0.03361277
81	0xbd103bc5	-0.03521325
82	0x3dbeb47b	0.09311768
83	0xbcc4a401	-0.024003984
84	0xbdb95939	-0.09050221
85	0x3d00f0d0	0.031479657
86	0x3c1ebaeb	0.009688119
87	0xbdbdc05f	-0.092652075
88	0xbc449509	-0.011998423
89	0x3d9ba6db	0.076001845
90	0x3daf4c80	0.08559513
91	0xbc66efd8	-0.014095269
92	0x3bbf2fe7	0.005834568
93	0x38097500	3.277231e-05
94	0xbbeb026f	-0.007171921
95	0x3c8a7fcc	0.016906641
96	0xbcfd7d4b	-0.030943533
97	0xbd1aedfd	-0.03782462
98	0xbda8ae54	-0.082363755
99	0xbd2be094	-0.04196222
100	0xbd44e8eb	-0.04807369
101	0x3d259994	0.040429667
102	0x3d898ca3	0.067162775
103	0x3b20ead2	0.0024554026
104	0xbc9dfdb4	-0.019286014
105	0xbd47a696	-0.048742853
106	0xbd4754ad	-0.048664737
107	0x3d7400ab	0.05957095
108	0xbdc81064	-0.09768751
109	0xbdd58f73	-0.104277514
110	0xbda4f64e	-0.080547914
111	0xbcc9d6cb	-0.024638554
112	0xbd6ea186	-0.05825951
113	0xbdb72c40	-0.08943987
114	0x3cfd0921	0.030888142
115	0x3dabdb49	0.08391435
116	0x3c3d893c	0.011568364
117	0x3d0436bb	0.032278758
118	0x3d516382	0.05112029
119	0x3cc69d3d	0.024244899
120	0x3d7b5930	0.061364353
121	0xbd548353	-0.051883053
122	0x3d7c159f	0.061544057
123	0xbd7eab4a	-0.062175073
124	0x3d728570	0.059209287
125	0xbdcf0823	-0.10108974
126	0xbdc1adb3	-0.094569586
127	0xbd176eea	-0.03697101
128	0xbd868fb2	-0.065703765
129	0x3d54cf0d	0.05195527
130	0xbd726dfe	-0.059186928
131	0xbd076e24	-0.033064023
132	0xbdb09b67	-0.08623391
133	0x3cba1776	0.022716265
134	0xbdc3e2fb	-0.095647775
135	0xbd94e27c	-0.07269761
136	0x39a818e0	0.0003206199
137	0x3d487050	0.048935235
138	0x39606dd0	0.00021403213
139	0x3d8dbf57	0.06921261
140	0xbd59952a	-0.05312077
141	0x3ca7248a	0.020403165
142	0x3d3c3524	0.045949116
143	0x3dd657d4	0.10465971
144	0xbdd315d7	-0.103069
145	0xbc8a3604	-0.01687146
146	0x3bfe5fbb	0.007762877
147	0x3d9700e3	0.07373216
148	0xbdc0c72c	-0.09412989
149	0x3dc2d8ee	0.09514032
150	0xbc633f66	-0.013870096
151	0x3d498126	0.04919543
152	0x3d92c747	0.071669154
153	0x3bc6390a	0.00604928
154	0x3cf42591	0.02980307
155	0xb9791900	-0.00023755804
156	0x3cd511e6	0.026009511
157	0xbb5e6987	-0.003393741
158	0x3db7d00f	0.08975231
159	0x3d742f78	0.059615582
160	0x3dbcee5a	0.092251495
161	0xbc59de6c	-0.013297658
162	0x3dc2fe4a	0.09521158
163	0xbd77c11d	-0.0604869
164	0x3d8e0c32	0.0693592
165	0x3dc1f565	0.094706334
166	0xbda3358e	-0.07969199
167	0x3ccdf28e	0.025140073
168	0x3d4f1f81	0.050567154
169	0xbbb5f18e	-0.005552477
170	0xbd3071da	-0.043077327
171	0xbdc4d750	-0.0961138
172	0xbdaa3b71	-0.08312119
173	0xbda769ab	-0.081744514
174	0xbd3c457a	-0.045964696
175	0xbd94edaf	-0.07271897
176	0xbced0758	-0.028934166
177	0xbd6606c3	-0.056158792
178	0xbd39d29f	-0.04536688
179	0xbdd14f82	-0.10220243
180	0xbd696591	-0.056981627
181	0xbc848f0a	-0.016181488
182	0xbd23f058	-0.04002413
183	0xbdb3f69f	-0.087872736
184	0x3c8795de	0.016550954
185	0x3dc4c44e	0.09607755
186	0x3c599cea	0.01328204
187	0xbdd22c7f	-0.10262393
188	0xbdcd2df0	-0.100185275
189	0xbbb56c1d	-0.0055365697
190	0x3d87295d	0.06599686
191	0x3d194856	0.0374225
192	0x3c890b43	0.016729003
193	0xbdb6dc51	-0.08928741
194	0x3d950452	0.07276215
195	0x3dd4a7de	0.103835806
196	0x3c2b268b	0.010446201
197	0x3dbab57b	0.09116646
198	0xbd196fa1	-0.037459973
199	0xbd25c5ac	-0.040471718
200	0xbd9fdc66	-0.078057095
201	0x3c2f8dbe	0.010714946
202	0xbbb9052c	-0.0056463685
203	0x3d6f8bfb	0.058483105
204	0xbd86857d	-0.065684296
205	0x3d627b6c	0.055293486
206	0xbc660a07	-0.014040477
207	0x3d91b139	0.07113881
208	0xbcf8e5f9	-0.030383097
209	0xbd4cc754	-0.04999478
210	0xbd2a3446	-0.041553758
211	0x3d8c626b	0.06854709
212	0xbd11f6cf	-0.035635766
213	0xbd574a09	-0.05256084
214	0xbdb6b09a	-0.08920403
215	0xbd2b3c6f	-0.04180568
216	0xbb965961	-0.0045882915
217	0x3c286087	0.01027692
218	0xbc26f02f	-0.0101891
219	0x3d8f7f04	0.07006648
220	0xbc8b5834	-0.017009832
221	0x3dbac11f	0.09118866
222	0xbda98a83	-0.08278372
223	0xbda475f8	-0.08030313
224	0xbd4b8f03	-0.049696933
225	0x3ca5fb4b	0.020261427
226	0xbd411c1a	-0.04714594
227	0x3d8ff0f2	0.070283785
228	0xbbcf43a8	-0.006325204
229	0xbdda85ab	-0.106700264
230	0xbd9a8042	-0.075439945
231	0x3daf7937	0.08568042
232	0xbd5ecde6	-0.05439558
233	0x3d457edd	0.04821669
234	0xbdb21157	-0.086947136
235	0x3d81f468	0.06345445
236	0x3d8128a5	0.063065805
237	0xbdc3c75c	-0.09559509
238	0x3ab410fc	0.0013737972
239	0x3b2bf96e	0.00262412
240	0x3d313a0d	0.043268252
241	0xbc31e9e1	-0.010858984
242	0x3cdadef0	0.026717633
243	0xbd21acf9	-0.0394716
244	0xbd27cfb8	-0.04096958
245	0x3cccefec	0.025016747
246	0x3b0465c9	0.002020227
247	0x3daffb1e	0.08592819
248	0x3dab7548	0.08371979
249	0x3d4b0399	0.049563978
250	0x3d892b39	0.06697697
251	0x3da771ad	0.08175979
252	0x3dbe2129	0.092836685
253	0x3d3c9d87	0.046048667
254	0xbd2430a5	-0.040085454
255	0x3d83fbd7	0.06444519
